lstm_cost_model.pt (torch, 803112 bytes, 9 tensors)

lstm1.weight_ih_l0 f4 [512, 2]
0	0xbcb8b767	-0.02254839
1	0x3cf461cb	0.029831788
2	0xbd6b015c	-0.057374343
3	0xbcb9b248	-0.022668019
4	0x3c48c920	0.012254983
5	0xbd9b8768	-0.07594186
6	0x3d3eab84	0.04655029
7	0x3d83f8ce	0.0644394
8	0x3d3c2db8	0.04594204
9	0x3d1072a7	0.03526559
10	0xbd863b41	-0.065542705
11	0xbd73eda1	-0.059552792
12	0xbd1ca2d8	-0.038241237
13	0xbe171263	-0.14753108
14	0xbd8d34a5	-0.06894807
15	0xbe0014ca	-0.1250793
16	0x3d264454	0.040592507
17	0x3c13196e	0.008978231
18	0x3cd0ab91	0.025472434
19	0xbd4e166b	-0.05031435
20	0x3dbeb627	0.093120866
21	0x3ce6ba41	0.028164985
22	0x3c3f24cc	0.011666488
23	0xbde1adde	-0.11019491
24	0xbcd04d8e	-0.025427606
25	0xbcc10a18	-0.023564383
26	0xbb4e4d8c	-0.0031479327
27	0x3da11f05	0.07867245
28	0xbd38a76d	-0.045081545
29	0xbd9c6213	-0.07635894
30	0xbcbfa673	-0.023394799
31	0xbd9ca7be	-0.07649182
32	0x3c975d75	0.018477181
33	0x3cf00f75	0.029304245
34	0x3d4b7d07	0.049679782
35	0xbdd01ecb	-0.10162123
36	0xbd540141	-0.05175901
37	0xbd7da2ce	-0.06192284
38	0x3d358aab	0.044321697
39	0x3da01442	0.07816364
40	0xb920f702	-0.00015350807
41	0xba15b77d	-0.0005711241
42	0xbd05ffc2	-0.032714613
43	0xbe151b54	-0.14561206
44	0x3ccfb1dc	0.025353365
45	0x3da3084a	0.079605654
46	0x3c97227c	0.01844906
47	0x3b35d517	0.002774542
48	0xbca0dfcc	-0.019637965
49	0x3d83e0d5	0.06439368
50	0xbce4c952	-0.027928028
51	0x3d6dc375	0.05804773
52	0x3bdb795e	0.0066978177
53	0xbde70a89	-0.11281306
54	0xbd2f4f2b	-0.04280011
55	0xbc7bdcac	-0.0153724365
56	0x3d354947	0.044259336
57	0x3dca3d00	0.09874916
58	0xbd80d1c3	-0.06290009
59	0xbd2d6e91	-0.042341772
60	0xbdf78ea4	-0.120877534
61	0xbde353bf	-0.11099958
62	0x3da42fc3	0.08016922
63	0xbc3fe90c	-0.011713278
64	0x3c24b8f4	0.010053862
65	0xbd9df3eb	-0.07712539
66	0xbd804a5b	-0.06264182
67	0xbcdc6ba0	-0.026906788
68	0x3c235e55	0.009971221
69	0x3d9002a2	0.07031752
70	0x3cd956ac	0.026530586
71	0x3ddb7db0	0.10717332
72	0xbd5dcc81	-0.05415011
73	0xbd4cd10d	-0.050004054
74	0xbcf76c41	-0.030202987
75	0xbe68d2fb	-0.22736733
76	0x3c3aef6d	0.011409623
77	0x3e296421	0.16542102
78	0x3c4115df	0.011785
79	0x3cece658	0.02891843
80	0xbd15bb2a	-0.036555447
81	0xbde00457	-0.10938328
82	0xbcb593ae	-0.022165146
83	0xbda824ad	-0.0821012
84	0x3c8ae6a1	0.016955676
85	0x3bf3cc76	0.007440145
86	0x3d09a47f	0.03360414
87	0xbc350173	-0.011047709
88	0xbcc17842	-0.023616914
89	0xbd2db4a3	-0.042408597
90	0x3d08121c	0.033220395
91	0x3c3f83e8	0.011689164
92	0xbd955ca8	-0.072930634
93	0x3cffad88	0.031210676
94	0xbca9bf8f	-0.020721225
95	0xbe299527	-0.16560803
96	0xbcccb89a	-0.024990369
97	0x3c019f8d	0.007911575
98	0xbd243810	-0.040092528
99	0x3dc3c001	0.09558106
100	0x3cc5ec97	0.024160666
101	0xbda48947	-0.08033996
102	0x3a9fa309	0.0012179326
103	0x3d29c8d2	0.041451283
104	0x3cda313d	0.026634807
105	0x3c8296a5	0.015940974
106	0xbdae4b10	-0.08510411
107	0xbcfc3d74	-0.030791022
108	0xbc725699	-0.014791154
109	0x3d0d0902	0.03443242
110	0x3ceb5136	0.028725248
111	0xbded0b76	-0.115744516
112	0x3d268779	0.04065654
113	0xbc1f2fb4	-0.009715963
114	0xbc69429b	-0.014237071
115	0x3d4515c9	0.04811648
116	0x3cb2009f	0.021728812
117	0xbd95bf6c	-0.073119015
118	0xbd81f0f8	-0.06344789
119	0xbdcb71e6	-0.09933834
120	0x3c843d7d	0.016142601
121	0x3d3a8cf3	0.045544576
122	0x3c9765ac	0.018481098
123	0xbd7de9ec	-0.061990663
124	0x3d6ce1fa	0.057832696
125	0x3d1ae783	0.037818443
126	0x3b809d90	0.003925033
127	0x3daafb20	0.083486795
128	0x3c1eec46	0.009699887
129	0x3d2327d3	0.0398329
130	0xbc4ac8cd	-0.012376976
131	0xbe008829	-0.12551941
132	0xbd3804e8	-0.044926554
133	0x3d486564	0.04892482
134	0x3cd4b0f4	0.025963284
135	0xbc04de13	-0.008109587
136	0x3c0531d1	0.008129553
137	0x3d8df7dd	0.06932042
138	0xbc3cdeeb	-0.011527757
139	0xbe33a741	-0.17544271
140	0x3d50697e	0.050881855
141	0xbe079fc6	-0.13244542
142	0x3da3da9b	0.0800068
143	0x3d45ce50	0.048292458
144	0xbd58c552	-0.052922554
145	0xbe3ed4a1	-0.18635799
146	0x3d3022bc	0.043001875
147	0x3c565261	0.013081164
148	0xbca4642b	-0.020067295
149	0xbda5dfd8	-0.080993354
150	0xbc111437	-0.008854917
151	0xbdf3c700	-0.119031906
152	0x3d787dc5	0.06066682
153	0x3d6effc6	0.058349393
154	0xbd128551	-0.03577167
155	0xbd632993	-0.05545957
156	0x3bfccf99	0.0077151773
157	0xbe540b98	-0.20707548
158	0xbbb301b1	-0.005462848
159	0x3d5b36d4	0.053519085
160	0x3c84b878	0.016201243
161	0xbd86e99a	-0.06587525
162	0xbd5e0663	-0.05420531
163	0xbe3e35e0	-0.18575239
164	0x3d10dd0b	0.035367053
165	0x3d0e8a99	0.034800146
166	0xbd0c6b34	-0.034281924
167	0xbc428379	-0.011872166
168	0xbd26def4	-0.04073997
169	0xbdd1fd1e	-0.102533564
170	0xbd78d293	-0.060747694
171	0xbc86dbf5	-0.016462306
172	0x3cf0b1e4	0.0293817
173	0x3e000dd0	0.12505269
174	0x3b441728	0.0029921029
175	0x3c8b5b6a	0.017011363
176	0x3cae45be	0.02127349
177	0xbd0372a5	-0.032091755
178	0x3c98d04a	0.018654007
179	0x3d54b279	0.051928017
180	0x3ca7d21e	0.020485934
181	0xbe4c2734	-0.1993683
182	0xbd846274	-0.06464091
183	0xbe0659f7	-0.13120256
184	0xbd899151	-0.0671717
185	0x3d1b6a04	0.0379429
186	0x3cc3f75c	0.023921661
187	0x3c0dd82f	0.008657499
188	0x3c84516a	0.016152103
189	0x3da6fe15	0.08153931
190	0xba8a2969	-0.0010540906
191	0xbd6844b8	-0.05670616
192	0x3c9110e6	0.017708253
193	0xbb387c7f	-0.0028150377
194	0xbd28c261	-0.041201
195	0xbda17b1e	-0.07884811
196	0x3d4e2142	0.050324686
197	0xbda2137e	-0.07913874
198	0x3bde99b1	0.006793224
199	0xbd53bd13	-0.051693987
200	0xbc8c4bfa	-0.017126072
201	0x3d38d1de	0.04512202
202	0x3b6dce76	0.003628639
203	0xbe0352b8	-0.12824523
204	0xbcede5c5	-0.029040227
205	0x3ccc2fc5	0.024925122
206	0x3af18aec	0.0018428243
207	0xbd953b3e	-0.0728669
208	0xbcbd7dda	-0.0231313
209	0xbd790ac3	-0.06080128
210	0x3d5b8f74	0.053603604
211	0x3e0cce1d	0.13750501
212	0xbd5c8bf5	-0.05384441
213	0xbd88e64f	-0.06684553
214	0xbd43f81b	-0.047844034
215	0xbe26fa2c	-0.1630637
216	0x3c771f23	0.015083107
217	0xbd3ed23b	-0.04658721
218	0x3c94d911	0.018169912
219	0x3d92021d	0.07129309
220	0xbd4f2a28	-0.050577313
221	0xbde74f94	-0.11294475
222	0xbd53c29d	-0.05169927
223	0x3c037b98	0.0080250725
224	0x3d59495d	0.05304848
225	0xbd97f766	-0.074202344
226	0x3ccda613	0.025103604
227	0xbc6fb1ba	-0.014629776
228	0x3d8239e5	0.06358699
229	0x3d812863	0.06306531
230	0x3da0e30b	0.07855805
231	0x3cfa6beb	0.030569037
232	0x3b549cc9	0.0032442084
233	0x3b5ca33e	0.0033666636
234	0xbc6c980d	-0.014440549
235	0xbd3184ba	-0.04333947
236	0xbd46a78d	-0.048499633
237	0xbe200287	-0.15625964
238	0xbb844340	-0.004036337
239	0xbdaa6431	-0.08319891
240	0xbd4242bb	-0.04742692
241	0x3d917414	0.07102218
242	0xbce0f3f7	-0.027460082
243	0xbd35993e	-0.044335596
244	0xbc6d2797	-0.014474771
245	0xbd890f9f	-0.066924326
246	0xbd9f3b23	-0.07774951
247	0x3c3b608d	0.011436594
248	0x3c94275a	0.01808517
249	0x3dcc49a6	0.09974985
250	0x3d817698	0.06321448
251	0x3d80f29b	0.06296273
252	0xbd0ece32	-0.034864612
253	0xbd5677ce	-0.05236035
254	0x3cc0355f	0.02346295
255	0xbdc55702	-0.09635736

lstm1.weight_hh_l0 f4 [512, 128]
0	0x3c94cc7b	0.01816391
1	0xbd89d2a2	-0.06729628
2	0x3c4f4d88	0.012652762
3	0xbd8c7e15	-0.06859986
4	0xbc87b92b	-0.016567787
5	0x3d11acea	0.035565294
6	0x3d28dd62	0.041226752
7	0x3d881b1a	0.06645794
8	0x3d19c354	0.037539795
9	0x3cd6bce6	0.02621312
10	0xbde49fe6	-0.11163311
11	0x3df9f544	0.12204984
12	0x3d468bd0	0.04847318
13	0xbc155e5f	-0.009116738
14	0xbd4c91f8	-0.049943894
15	0x3c9b198a	0.018933076
16	0xbde6ff3d	-0.112791516
17	0xbd8a90bf	-0.067658894
18	0x3d3baa53	0.04581673
19	0xbc465aa5	-0.012106572
20	0xbd8c2392	-0.06842722
21	0xbdb13f5f	-0.08654665
22	0x3dd5f36c	0.1044682
23	0xbdc2943e	-0.09500931
24	0xbd63c914	-0.055611685
25	0xbdc6f134	-0.097139746
26	0xbdc1242e	-0.09430729
27	0x3d8564cd	0.06513367
28	0x3afb295f	0.001916211
29	0x3db9bc7b	0.09069153
30	0x3d3acdfe	0.045606606
31	0xbca79416	-0.020456355
32	0xbdc843e1	-0.09778572
33	0xbde28701	-0.11060906
34	0xbc90a5f6	-0.017657261
35	0x3dfcbda7	0.12340861
36	0xbc6b9e87	-0.014381058
37	0xb9adaadf	-0.0003312444
38	0x3d0ab9f5	0.03386875
39	0x3bda1ed6	0.006656508
40	0x3dcd6763	0.10029485
41	0xbdb8aff8	-0.090179384
42	0xbe0a2cd2	-0.1349366
43	0xbdc3a592	-0.095530644
44	0x3ce0dc64	0.02744884
45	0x3da22d80	0.07918835
46	0x3db919c0	0.090381145
47	0x3d3d155f	0.04616296
48	0x3d0889a7	0.0333344
49	0xbc93494a	-0.017979283
50	0x3d31bb44	0.04339148
51	0xbe14c814	-0.14529449
52	0xbc928bc4	-0.017888911
53	0x3de13047	0.10995536
54	0xbdc1d7ef	-0.09465014
55	0x3d3026d0	0.043005764
56	0x3dd51783	0.10404875
57	0xbcec9e6f	-0.02888414
58	0xbd3895b4	-0.045064643
59	0xbdb8105b	-0.089874946
60	0xbde9cde7	-0.11416226
61	0x3cfdd924	0.03098733
62	0xbc19663a	-0.009362752
63	0xbd62f136	-0.055405818
64	0x3d63c5be	0.055608504
65	0xbd062a8e	-0.032755427
66	0x3c444a8e	0.011980666
67	0x3d573716	0.05254277
68	0x3dfc3622	0.123150125
69	0xbcd2c31d	-0.025727803
70	0x3da2e899	0.07954521
71	0xbdc308cb	-0.095231615
72	0x3d92c5ba	0.071666196
73	0xbdc930b1	-0.0982374
74	0x3cda4bf7	0.026647551
75	0xbda5e1f7	-0.0809974
76	0xbd2c8c3f	-0.042125937
77	0xbd1e96a7	-0.038717892
78	0x3d067644	0.03282763
79	0x3e11f273	0.14252643
80	0x3d3ddbf1	0.04635233
81	0x3dbb21e0	0.091373205
82	0x3d1d62c8	0.038424283
83	0xbcd037e4	-0.025417276
84	0xbccc690e	-0.024952438
85	0xbb0931ba	-0.002093418
86	0xbc9d3269	-0.019189076
87	0x3cfca04a	0.03083815
88	0xbdb2f9f6	-0.087390825
89	0x3e020545	0.12697323
90	0x3d881eec	0.06646523
91	0xbd8dd1bb	-0.069247685
92	0xbd8cee96	-0.06881444
93	0x3d3d1e8f	0.04617172
94	0x3be27ca2	0.00691183
95	0xbb4023cd	-0.0029318214
96	0x3d4d5440	0.050129175
97	0xbc9a1574	-0.018809058
98	0xbd8eb287	-0.06967645
99	0xbc574d75	-0.013141026
100	0x3d625e60	0.055265784
101	0x3db42449	0.08795983
102	0xbda7df85	-0.0819693
103	0x3da38d9d	0.07985995
104	0x3daecaeb	0.08534797
105	0xbbd17a83	-0.0063927784
106	0xbd2813a5	-0.04103436
107	0x3c911a00	0.017712593
108	0x3ba44306	0.0050128726
109	0x3df9ea66	0.12202911
110	0xbca9a262	-0.020707313
111	0x3cf9d42e	0.030496683
112	0x3b591fd5	0.0033130546
113	0x3d510d5a	0.051038124
114	0xbc3c3723	-0.011487755
115	0x3c0d21ab	0.008613984
116	0xbcc409d7	-0.023930473
117	0x3cd3122f	0.025765507
118	0xbdb01bdb	-0.08599063
119	0xbdd31c75	-0.10308162
120	0xbd2e7196	-0.042588793
121	0xbdbfc053	-0.09362855
122	0xbd7badcd	-0.061445046
123	0x3d5098c6	0.050926946
124	0xbdc636bb	-0.09678408
125	0x3c8e3bee	0.017362561
126	0xbd407a5a	-0.046991684
127	0x3d12eeef	0.035872396
128	0xbd78cb70	-0.060740888
129	0xbca4da41	-0.020123603
130	0xbd35ae60	-0.04435575
131	0x3d1ff394	0.039050654
132	0xbd144c15	-0.03620537
133	0xbe083b8e	-0.13303968
134	0xbd79d2ee	-0.060992174
135	0xbda99008	-0.08279425
136	0x3d5dfda0	0.054196954
137	0xbcde1394	-0.027108945
138	0x3d69aa5a	0.057047226
139	0x3cd5381d	0.026027733
140	0xbd4057f2	-0.04695887
141	0x3cf748e9	0.030186133
142	0x3d2c692f	0.0420925
143	0x3d42c1ba	0.047548033
144	0xbaf63ba5	-0.0018786086
145	0x3d67f126	0.05662646
146	0xbc2231f2	-0.009899603
147	0xbd93fb5f	-0.072256796
148	0x3d545c31	0.051845733
149	0xbdad3356	-0.08457057
150	0xbdc7ec1f	-0.097618334
151	0xbd09666d	-0.033544946
152	0xbc639ac0	-0.013891876
153	0x3cada185	0.021195183
154	0xb99c4af0	-0.00029810471
155	0xbd39d58d	-0.045369674
156	0x3d735512	0.0594073
157	0xbd6d1ade	-0.05788695
158	0x3c93c8e3	0.018040126
159	0x37b61788	2.1707048e-05
160	0xbdc16c7b	-0.09444519
161	0xbd675a9c	-0.056482896
162	0x3ccce308	0.0250106
163	0xbe247f69	-0.16064228
164	0xbcf8ed5a	-0.030386616
165	0xbccd1dee	-0.025038686
166	0x3c7759d0	0.015097097
167	0xbce50003	-0.027954107
168	0x3dd6b82b	0.10484346
169	0xbbf40111	-0.007446416
170	0x3e384640	0.17995548
171	0x3de068da	0.10957499
172	0x3cbd9e3f	0.023146747
173	0x3cc9f176	0.02465127
174	0xbcd6f141	-0.026238086
175	0x3db3cd85	0.08779434
176	0xbdbb7908	-0.09153944
177	0x3c27f695	0.010251661
178	0xbbe7f816	-0.0070791347
179	0x3d6165ed	0.055028845
180	0xbc76ebdf	-0.0150708845
181	0x3dd7bc5a	0.10533972
182	0x3e534f7a	0.20635787
183	0x3d41770f	0.047232684
184	0xbda54647	-0.08070045
185	0x3d2e6d8c	0.04258494
186	0xbbb528ee	-0.005528561
187	0x3d6f257a	0.05838535
188	0xbd555264	-0.052080527
189	0xbcacf9a5	-0.021115134
190	0xbd6ed08f	-0.058304366
191	0x3d2bb0d1	0.041916672
192	0xbd46f06b	-0.048569124
193	0x3c17d431	0.009266899
194	0x3d5b34cd	0.05351715
195	0x3dac60e1	0.08416916
196	0x3d567b5d	0.052363742
197	0xbd2bc809	-0.041938815
198	0x3d1e0e2f	0.038587745
199	0x3c133862	0.008985611
200	0x3dc68718	0.09693736
201	0xbb0243b5	-0.0019876782
202	0x3a944672	0.0011312498
203	0xbd5ae622	-0.053442128
204	0x3d2d820f	0.04236036
205	0x3ca81aa7	0.020520521
206	0x3d1c4ac6	0.038157247
207	0x3cb91acb	0.022595784
208	0xbd12c70e	-0.035834365
209	0xbe1ca6eb	-0.15298049
210	0x3c4110b9	0.011783772
211	0xbd950285	-0.07275871
212	0x3d2b6b78	0.041850537
213	0x3d10b04e	0.035324387
214	0x3da3b365	0.07993201
215	0xbd8a763f	-0.06760835
216	0xbc8cea4b	-0.017201563
217	0xbd9075a3	-0.070536874
218	0x3d5f2dfb	0.05448721
219	0x3d715391	0.058917586
220	0x3c98057b	0.0185573
221	0x3d756e8d	0.059919883
222	0xbb8204f1	-0.003967874
223	0xbd0be9c1	-0.034158472
224	0xbbfeeef0	-0.0077799484
225	0x3d5a11b6	0.053239547
226	0x3daaa971	0.083331
227	0xbc77f641	-0.015134395
228	0x3d82953f	0.06376123
229	0xbe0564c2	-0.13026717
230	0xbd363573	-0.044484567
231	0x3cf990f1	0.030464621
232	0x3c4d84a9	0.012543836
233	0xbd1f484f	-0.03888732
234	0xbca3a4bf	-0.019976018
235	0x3d6f9760	0.05849397
236	0xbd9fd2c5	-0.07803873
237	0xbd9461d9	-0.072452255
238	0x3c79d3d5	0.015248259
239	0x3d3299fb	0.04360388
240	0x3cbe30e7	0.023216678
241	0x3dbf8e05	0.0935326
242	0xbe017149	-0.12640871
243	0x3d3c644e	0.045994096
244	0x3e089103	0.13336568
245	0xbb7f8091	-0.0038986544
246	0xbd984d7b	-0.07436653
247	0xbcc6e991	-0.024281295
248	0xbcdae646	-0.026721131
249	0xbd04ee93	-0.032454085
250	0xbcc31922	-0.023815695
251	0xbd90e57f	-0.07075023
252	0xbd3e5b04	-0.046473518
253	0x3db8fbe5	0.0903242
254	0xbca1caba	-0.019749988
255	0x3d7b66e7	0.061377432

lstm1.bias_ih_l0 f4 [512]
0	0x3d1c23e8	0.03812018
1	0x3d2a4119	0.04156599
2	0xbc2159ca	-0.009848068
3	0xbdd68692	-0.10474886
4	0x3a320191	0.00067903945
5	0xbd8b5dbe	-0.06804989
6	0x3d8d0dd3	0.068874024
7	0xbde14149	-0.1099878
8	0xbd878ab6	-0.06618254
9	0xbd4a7752	-0.0494302
10	0x3cf622c7	0.03004588
11	0xbdbdd3c9	-0.092689104
12	0x3d03c61f	0.032171365
13	0xbd536dab	-0.05161826
14	0xbdb958a7	-0.09050112
15	0xbd3635aa	-0.04448477
16	0xbb8bddee	-0.0042683994
17	0xbc082a7d	-0.008310911
18	0xbd0ee69d	-0.0348879
19	0xbe35a4d6	-0.17738661
20	0xbd090cab	-0.033459347
21	0x3a9e987f	0.0012099891
22	0xbdf0e8be	-0.11763142
23	0xbdc47ce4	-0.095941335
24	0xbd380418	-0.04492578
25	0xbad2d2cf	-0.0016084554
26	0x3d38dc69	0.045132075
27	0xbc41a829	-0.011819878
28	0x3ce47e7a	0.02789234
29	0xbd637bb6	-0.0555379
30	0x3cafaeb7	0.021445615
31	0xbd34254d	-0.043980885
32	0xbd8c8a09	-0.068622656
33	0x3d97f109	0.07419021
34	0x3d4743da	0.048648693
35	0x3d76c333	0.06024475
36	0xbd883148	-0.06650025
37	0xbe0c7122	-0.13715032
38	0xbe0136e7	-0.126186
39	0xbd9e4605	-0.07728199
40	0x3d12fe57	0.03588709
41	0xbbcc1cda	-0.0062290253
42	0x3d43b3d6	0.047778927
43	0x3c9702dd	0.018433983
44	0x3bb05645	0.005381378
45	0xbd06f618	-0.032949537
46	0xbdb2c5fd	-0.087291695
47	0xbd981b31	-0.07427061
48	0x3b1a2b98	0.002352452
49	0xbccb00df	-0.024780689
50	0xbcc14e4f	-0.02359691
51	0x3d84bebb	0.064816914
52	0xbcd0335c	-0.025415115
53	0x3b8149e9	0.0039455784
54	0x3b09fac4	0.002105401
55	0x3d8c2345	0.06842665
56	0xbc96ac48	-0.018392697
57	0xbc106ef9	-0.00881552
58	0x3cf270c7	0.029594792
59	0xbd74d3aa	-0.05977217
60	0x3cac9ddb	0.021071365
61	0x3d8ed9a6	0.06975107
62	0xbd87c225	-0.06628827
63	0x3cacadb6	0.021078926
64	0x3d082715	0.033240397
65	0xbda591f7	-0.08084481
66	0x3c772b0f	0.01508595
67	0x3d11a01a	0.035553075
68	0x3da02e91	0.07821382
69	0x3d361863	0.04445685
70	0x3d605333	0.054766845
71	0xbdac7da3	-0.08422401
72	0xbd258507	-0.040410068
73	0xbdca6921	-0.09883333
74	0x3d93510f	0.07193195
75	0xbba79bae	-0.005114994
76	0x3ce21fac	0.027602993
77	0xbddf5a2b	-0.1090587
78	0x3d74c2a7	0.059755947
79	0x3cd15a38	0.025555715
80	0xbd735aac	-0.059412643
81	0xbd565cad	-0.052334476
82	0xbda7fdf1	-0.08202732
83	0xbd597680	-0.053091526
84	0xbc161a6a	-0.009161571
85	0xbdb878e5	-0.09007434
86	0x3d2c37da	0.04204545
87	0xbcb62c31	-0.022237869
88	0xbcef3c4a	-0.029203553
89	0xbcb1b2fc	-0.021691792
90	0x3d6d6aff	0.057963368
91	0xbd139826	-0.036033772
92	0x3d843f03	0.06457331
93	0xbdae14f4	-0.0850009
94	0xbd1122b2	-0.03543348
95	0x3d242eef	0.040083822
96	0x3da6b8e4	0.08140734
97	0xbd386547	-0.04501846
98	0xbd1a5b4a	-0.037684716
99	0xbdc5afe9	-0.09652693
100	0xbd23bbd2	-0.03997404
101	0xbc5fa866	-0.013650989
102	0x3d8a0463	0.06739118
103	0x3c3fcfec	0.011707287
104	0xbd86b8d3	-0.06578221
105	0xbd521f95	-0.05129965
106	0xbdafca27	-0.085834794
107	0xbcb54462	-0.022127334
108	0x3d42abbb	0.047527056
109	0x3da2d9f7	0.0795173
110	0xbcac5684	-0.021037348
111	0x3d9deb6d	0.077109195
112	0x3d055daf	0.032560047
113	0xbca47682	-0.02007604
114	0xbd1b0160	-0.03784311
115	0xbcb69a8b	-0.022290489
116	0x3d171e87	0.036894348
117	0xbcf4b59c	-0.029871754
118	0x3c855f5b	0.01628082
119	0xbbea80a7	-0.00715645
120	0xbc859c1b	-0.016309788
121	0xbdbcaf70	-0.092131495
122	0x3c08cdcf	0.00834985
123	0xbd9dacd7	-0.07698982
124	0xbdf02fad	-0.117278434
125	0xba0ffb61	-0.00054924755
126	0xbdb62c6d	-0.08895192
127	0x3cfa9105	0.030586729
128	0x3cfad6b6	0.03061996
129	0xbb0e4256	-0.002170702
130	0x3bf3978b	0.007433837
131	0xbca11a71	-0.019665929
132	0x3ca374dc	0.019953184
133	0xbd8e9a84	-0.06963065
134	0x3bac8fac	0.0052661505
135	0x3d584789	0.052802596
136	0xbd5154fe	-0.051106445
137	0xbc9af2ff	-0.018914698
138	0x3c85f187	0.01635052
139	0xbce26add	-0.027638847
140	0x3c599f80	0.013282657
141	0xbda4295c	-0.08015701
142	0xbda9c633	-0.082897566
143	0xbd858355	-0.0651919
144	0x3d9462be	0.07245396
145	0x3c88d973	0.01670525
146	0xbd92f41e	-0.07175468
147	0xbe052747	-0.13003264
148	0x3d925754	0.07145563
149	0xbd9b405c	-0.07580635
150	0xbd89fd9f	-0.067378275
151	0x3bcdf4b5	0.006285275
152	0xbddcfe87	-0.10790735
153	0x3d1372b4	0.03599806
154	0x3d0d5543	0.03450514
155	0xbdf60427	-0.12012511
156	0x3d015d93	0.03158338
157	0x3d687cd7	0.05675968
158	0xbd2b9414	-0.041889265
159	0x3d0d146a	0.034443296
160	0xbc920674	-0.017825343
161	0x3cda5d7e	0.026655909
162	0xbb9f5b72	-0.004863196
163	0xbdb7a8bf	-0.08967733
164	0xbd0820e5	-0.033234496
165	0xbd80c1c1	-0.062869556
166	0xbc85d81a	-0.016338397
167	0xbdcd938b	-0.10037907
168	0xbdd50993	-0.10402217
169	0x3cdd6864	0.027027316
170	0xbd604b08	-0.054759055
171	0xbc829141	-0.015938403
172	0xbd3ab54f	-0.045583066
173	0x3c284321	0.010269911
174	0xbd9d834b	-0.07691058
175	0xbc38fab9	-0.011290246
176	0xbd12f11a	-0.035874464
177	0xbdb3ddeb	-0.08782562
178	0x3d99d74d	0.075117685
179	0xbcf76903	-0.03020144
180	0xbd54d602	-0.051961906
181	0x3d66c52c	0.05634038
182	0x3a06d11d	0.00051428546
183	0xbd9b0650	-0.075695634
184	0x3d1c81b9	0.03820965
185	0xbc95f4bd	-0.018305177
186	0x3cee1f00	0.029067516
187	0xbbc02a2c	-0.0058644023
188	0xbde61627	-0.11234694
189	0xbd8f2e26	-0.06991224
190	0x3cd7b4f2	0.026331399
191	0xb94e32ec	-0.00019664661
192	0xbdbc7c4a	-0.09203394
193	0x3a38241e	0.0007024425
194	0x3d04a0cb	0.032379907
195	0x3d48e860	0.049049735
196	0xbc5da60f	-0.013528361
197	0x3bd89288	0.0066092648
198	0x3b649f40	0.003488496
199	0x3b627c9d	0.0034559139
200	0x3bfed8e6	0.007777321
201	0xbd2103b3	-0.03931017
202	0xbdc87960	-0.097887754
203	0xbc232e33	-0.009959745
204	0xbc67fe0b	-0.01415969
205	0x3d0c9163	0.03431834
206	0xbd61e479	-0.05514953
207	0x3c06ddec	0.008231621
208	0xbd534f3e	-0.051589243
209	0xbd282d46	-0.0410588
210	0xbc959f8f	-0.01826456
211	0xbb92dc59	-0.004481834
212	0xbcd9aaf1	-0.026570769
213	0xbe1b3386	-0.15156373
214	0xbd12d2ad	-0.035845447
215	0x3c5970af	0.013271495
216	0x3bde6fc9	0.006788228
217	0xbd15bd8a	-0.03655771
218	0xbb251bd2	-0.0025193584
219	0x3c616809	0.013757714
220	0xbd28ed90	-0.041242182
221	0x3cc23dd4	0.023711123
222	0x3d629d09	0.05532554
223	0xbd94612a	-0.07245095
224	0xbc91ab83	-0.017781978
225	0xbcde6d8c	-0.027151845
226	0xbd6bf877	-0.05761
227	0x39a8f526	0.00032226107
228	0xbd9ab2da	-0.075536445
229	0x3d3f759a	0.046743013
230	0x3cd329ba	0.025776733
231	0xbdf96263	-0.12176969
232	0xbd3b19f4	-0.045679048
233	0xbb8d7289	-0.004316632
234	0xbcbffc91	-0.023435863
235	0xbd0aa891	-0.033852164
236	0xbc8f0e1d	-0.017462784
237	0xbc194066	-0.009353733
238	0x3d6bdc69	0.057583246
239	0x3d044474	0.032291844
240	0x3d76b1ef	0.060228284
241	0x3dd136a1	0.10215498
242	0xbcc76837	-0.024341686
243	0xbc713b94	-0.014723677
244	0xbc7adf9d	-0.015312103
245	0x3d70f451	0.05882675
246	0x3cc06666	0.023486327
247	0x3d0add05	0.033902187
248	0x3d831a59	0.0640151
249	0xbc348f82	-0.011020543
250	0x3dc316b5	0.095258154
251	0x3da3057e	0.07960032
252	0xbda97b00	-0.082754135
253	0xbdb0d549	-0.08634431
254	0xbcbb7975	-0.022885064
255	0xbdaed8f6	-0.08537476

lstm1.bias_hh_l0 f4 [512]
0	0x3b97beaa	0.004630883
1	0xbccde23d	-0.025132293
2	0xbd89130f	-0.06693088
3	0xbd782fec	-0.060592577
4	0x3d121caf	0.035671886
5	0xbd7e2ee8	-0.062056452
6	0x3c2d48b1	0.010576413
7	0x3cf93efb	0.03042554
8	0x3d198b96	0.037486635
9	0x3d6031e3	0.054735076
10	0xbdbcae05	-0.09212879
11	0x3d563e5c	0.052305564
12	0x3d8fb112	0.07016195
13	0xbc159bac	-0.009131353
14	0xbd57f9c1	-0.05272842
15	0xbc35a72b	-0.011087219
16	0x3cfea2e4	0.031083532
17	0x3d76b508	0.06023124
18	0x3d208975	0.03919359
19	0xbd22dd08	-0.039761573
20	0xbd84d68c	-0.06486234
21	0xbdb0e91a	-0.086382106
22	0x3c081c49	0.008307525
23	0xbb3bd108	-0.0028658528
24	0x3c084a9f	0.008318572
25	0x3d029439	0.031879637
26	0x3cad25d2	0.021136198
27	0xbd7be5aa	-0.06149832
28	0x3d3032b9	0.043017123
29	0xbda3546d	-0.07975087
30	0x3cc53493	0.02407292
31	0x3d27fd90	0.0410133
32	0x3b1ee8dd	0.0024247684
33	0x3dc40d04	0.09572795
34	0x3bb4ab98	0.0055136196
35	0xbd0e7dc4	-0.03478791
36	0xb93cf431	-0.00018020046
37	0xbda0cbdd	-0.07851384
38	0xbcef73c4	-0.029230006
39	0xbd9b9a3c	-0.07597777
40	0xbddcfb16	-0.10790078
41	0x3cb1bcf0	0.021696538
42	0xbd0099a8	-0.031396538
43	0xbb86e989	-0.004117195
44	0xbd5886ce	-0.052862935
45	0xbcd3c560	-0.025850952
46	0xbce60543	-0.02807868
47	0xbd2e80ac	-0.04260318
48	0x3d32947a	0.04359863
49	0x3c6e7634	0.014554549
50	0x3ce08920	0.027409136
51	0x3d912f4d	0.070891
52	0xbc17111a	-0.009220386
53	0xbd45bac7	-0.048273828
54	0xbbcf2837	-0.0063219327
55	0x3d87bf46	0.066282794
56	0x3d098a8c	0.033579394
57	0x3d752cc4	0.059857145
58	0xbd8ae960	-0.06782794
59	0xbdc7ad04	-0.09749797
60	0xbe07a335	-0.13245852
61	0xbcc628c3	-0.024189359
62	0xbcdf56a7	-0.027262999
63	0xbd53e759	-0.051734302
64	0x3ca2ef98	0.019889638
65	0xbd91286a	-0.070877865
66	0xbc87d3ba	-0.016580451
67	0x3cc47532	0.023981664
68	0x3db51223	0.0884135
69	0xbdbd07b0	-0.09229982
70	0xbda15ac6	-0.07878642
71	0x3d8838ab	0.066514336
72	0x3ce24798	0.02762203
73	0xbdc7d4b6	-0.09757368
74	0xbd198f53	-0.0374902
75	0xbdb5afb3	-0.088714026
76	0x3d7cbf34	0.061705783
77	0xbd57c3c2	-0.052676924
78	0xbd8dfe89	-0.06933314
79	0xbd003a19	-0.031305406
80	0xbd3eedb2	-0.046613403
81	0xbd43f9e9	-0.047845755
82	0x3d94b1a8	0.07260448
83	0xbd07b33f	-0.033129927
84	0x3cec2f71	0.028831216
85	0xbd5d7eda	-0.054076053
86	0x3d5fc59e	0.05463182
87	0x3d7a9b90	0.061183512
88	0x3b79518a	0.0038042986
89	0x3d210fb8	0.03932163
90	0xbbf947d5	-0.00760744
91	0xbddb154f	-0.10697424
92	0xbdba14a2	-0.09085967
93	0xbd9e48c2	-0.07728721
94	0x3dd53fcf	0.10412561
95	0xbd9e3448	-0.077248156
96	0x3d84d5e7	0.06486111
97	0x3dcb9672	0.099408045
98	0xbd8b79e2	-0.06810357
99	0x3ccca63c	0.02498161
100	0xbd9dfc6f	-0.077141635
101	0xbd2b0bf3	-0.041759443
102	0xbca1bc99	-0.01974325
103	0x3d02cb72	0.0319323
104	0xbd92fa3f	-0.07176637
105	0x3ca7a19a	0.0204628
106	0xbd93ecdf	-0.07222914
107	0xbd98b466	-0.07456283
108	0xbd572bf2	-0.052532144
109	0xbcca1cf0	-0.024672002
110	0xbcde37b3	-0.027126169
111	0x3d4c209b	0.049835782
112	0x3d0890ed	0.033341337
113	0xbb1072c1	-0.0022041055
114	0xbe0cc662	-0.13747552
115	0x3da56b4d	0.080771066
116	0x3d9bcd43	0.0760751
117	0xbdbab67e	-0.09116839
118	0xbd644082	-0.055725582
119	0x3d44c73f	0.04804158
120	0x3d9554ec	0.07291588
121	0xbda151fb	-0.07876965
122	0x3ceca60d	0.028887773
123	0xbd4d9741	-0.050193075
124	0xbdf8976d	-0.12138257
125	0xbcf064f9	-0.029345023
126	0xbe23c540	-0.15993214
127	0x3d2bd8ac	0.04195468
128	0x3d1b3c82	0.0378995
129	0x3c8b4f60	0.017005622
130	0xbbf81350	-0.0075706616
131	0xbdf69fc8	-0.120421946
132	0xbc0a083a	-0.008424813
133	0xbd0a44d6	-0.033757053
134	0x3dd38508	0.10328108
135	0xbd719e97	-0.058989134
136	0xbd224da0	-0.03962481
137	0x3c2b5369	0.010456898
138	0xbdc22cee	-0.09481226
139	0x3db696cd	0.08915482
140	0x3bc4de95	0.006007979
141	0xbdb4ef50	-0.08834708
142	0xbcc1a43a	-0.02363788
143	0xbdd959ac	-0.10612807
144	0xbd1c155e	-0.038106315
145	0xbdee87f9	-0.116470285
146	0xbd074e40	-0.03303361
147	0xbd8ae2f4	-0.06781569
148	0x3d8f7d72	0.07006349
149	0x3a8fde49	0.001097628
150	0xbd8808d4	-0.06642309
151	0x3d31e570	0.0434317
152	0xbdbd80fa	-0.09253116
153	0x3d00a730	0.031409442
154	0x3c9986de	0.018741067
155	0xbe10018c	-0.1406309
156	0xbd1e8522	-0.038701184
157	0xbd805279	-0.062657304
158	0xbc83703a	-0.016044725
159	0xbc0f8173	-0.00875889
160	0x3d78a228	0.06070152
161	0x3df8c4a0	0.12146878
162	0x3d87babb	0.06627413
163	0x3b925e76	0.004466827
164	0x3c889272	0.016671393
165	0xbdc43bb6	-0.095817015
166	0xbc578b31	-0.013155744
167	0x3d935a9f	0.07195019
168	0x3c170368	0.009217121
169	0x3d4e941b	0.050434213
170	0xbc41954a	-0.011815378
171	0x3c607de6	0.0137018915
172	0xbdd09b1c	-0.10185835
173	0xbd17ba68	-0.037043005
174	0xbdd821af	-0.105533
175	0xbd827eeb	-0.06371864
176	0x3dab9cf8	0.08379549
177	0xbd833196	-0.06405942
178	0x3cf7a670	0.03023073
179	0x3c14af32	0.009074973
180	0x3bbc70a2	0.0057507316
181	0x3dab8507	0.08374982
182	0x3d4edb76	0.050502263
183	0xbcdc70d3	-0.026909268
184	0x3d6946f4	0.05695243
185	0xbd70b266	-0.058763884
186	0xbd32f47a	-0.043690182
187	0x3cd0a73e	0.025470372
188	0xbd3c15bb	-0.04591916
189	0xbcefb6a6	-0.029261898
190	0xbd9f34ae	-0.0777372
191	0xbda78dcd	-0.08181343
192	0xbd363b4a	-0.044490136
193	0xbd944cd5	-0.07241217
194	0xbcf5e42b	-0.030016026
195	0x3d2df890	0.042473376
196	0xbd7bab9b	-0.061442953
197	0x3d77f7e0	0.060539126
198	0x3d822dee	0.06356417
199	0xbc8ab012	-0.01692966
200	0x3c9ffb64	0.019529052
201	0xbe10d194	-0.14142448
202	0x3d76997f	0.06020498
203	0xbd0f6d03	-0.03501607
204	0x3d9ea806	0.07746892
205	0xbd477f6f	-0.048705515
206	0xbd2ecb7b	-0.042674523
207	0x3dbcd9f9	0.092212625
208	0xbc2cf049	-0.010555335
209	0x3d0d5658	0.034506172
210	0xbb8a1c0c	-0.004214769
211	0xbda967d0	-0.08271754
212	0x3c4ff687	0.012693054
213	0xbd87a824	-0.06623867
214	0xbd5dc8c2	-0.054146536
215	0xbda0a6da	-0.078443244
216	0xbd06b9d9	-0.032892082
217	0xbd5d7275	-0.054064233
218	0x3d45f45a	0.048328735
219	0xbd7b0f00	-0.061293602
220	0xbd3809c8	-0.044931203
221	0xbdb4dd6b	-0.088312946
222	0x3d0a50a5	0.033768315
223	0xbd192716	-0.03739079
224	0x3d83499e	0.06410526
225	0xbc7979b9	-0.015226775
226	0xbdb6c2e2	-0.0892389
227	0x3d3f34bf	0.046681162
228	0xbdb26045	-0.08709768
229	0xbd34a73e	-0.044104807
230	0xbcb40781	-0.021976234
231	0xbb89f063	-0.0042095645
232	0xbdbe572e	-0.09293972
233	0xbb8b1135	-0.0042439946
234	0x3da58469	0.08081896
235	0x3d49a092	0.049225397
236	0xbdb1e3a2	-0.08685996
237	0xbcd81302	-0.026376251
238	0x3d9c4260	0.076298475
239	0xbcdc756a	-0.026911456
240	0x3c031f6a	0.008003095
241	0x3d6a2551	0.057164494
242	0xbdf082e0	-0.117437124
243	0x3abc5175	0.0014367538
244	0x3d0fb823	0.035087716
245	0x3d96ba5e	0.073597655
246	0xbcc479ad	-0.0239838
247	0xbd7871f6	-0.060655557
248	0x3d96c480	0.07361698
249	0x3d4161e4	0.047212496
250	0x3d84d115	0.06485192
251	0xbd085556	-0.033284508
252	0xbddc9800	-0.10771179
253	0x3d2fef18	0.042952627
254	0xbd6c9974	-0.05776353
255	0x3cab6458	0.020921871

lstm2.weight_ih_l0 f4 [512, 128]
0	0x3c27884a	0.010225365
1	0xbce16f2f	-0.027518837
2	0xbd806e61	-0.06271053
3	0xbd17c7f5	-0.03705593
4	0x3d832d3c	0.06405112
5	0x3d2aa33e	0.041659586
6	0x3c2935b5	0.010327746
7	0x3d64ee80	0.055891514
8	0x3c29a716	0.010354778
9	0xbdc01299	-0.09378547
10	0x3db68552	0.089121476
11	0xbccf0889	-0.025272625
12	0x3d59eb4c	0.053202912
13	0x3d703fb3	0.0586545
14	0x3c6f7076	0.014614215
15	0x3ca78c8d	0.020452762
16	0x3d8b6535	0.06806413
17	0x3d44c0bc	0.04803537
18	0x3cfd5c04	0.030927666
19	0xbdf89677	-0.12138074
20	0xbd99dc52	-0.07512726
21	0x3d456bac	0.048198387
22	0xbdbd9b13	-0.09258094
23	0xbc645581	-0.013936401
24	0x3c1e32cd	0.009655667
25	0x3de5bcee	0.11217676
26	0x3db81c6c	0.08989796
27	0xbd94d93c	-0.07267997
28	0x3daa5490	0.0831691
29	0x3d105f35	0.035247047
30	0x3c2011ca	0.009769866
31	0xbc82828c	-0.01593139
32	0xbcec0771	-0.028812142
33	0x3d973b90	0.073844075
34	0xbbda6225	-0.006664532
35	0xbcab5def	-0.020918814
36	0xbd952dfc	-0.072841614
37	0xbd9303c4	-0.071784526
38	0xbdce1d45	-0.100641765
39	0x3b06d89a	0.0020575882
40	0x3d87e40b	0.066352926
41	0x3dd2cc5a	0.10292883
42	0x3d05509c	0.03254758
43	0x3c6d9fb0	0.0145034045
44	0x3d9e8981	0.077410705
45	0x3dce40f8	0.100709856
46	0xbbe4e157	-0.0069848704
47	0x3dcd4f34	0.100248724
48	0xbc97df20	-0.018539011
49	0x3d80056e	0.06251036
50	0x3dbad602	0.0912285
51	0x3de78146	0.11303954
52	0xbdc57d18	-0.09643
53	0x3b656ea6	0.0035008579
54	0x3d2ad319	0.041705225
55	0xbd23b257	-0.039965
56	0xbd7fe13e	-0.062470667
57	0xbd755f0e	-0.059905104
58	0x3d1eb966	0.03875103
59	0xbdbbdbba	-0.09172769
60	0x3d8b706a	0.06808551
61	0x3c85fd40	0.01635611
62	0x3c02eabf	0.007990538
63	0x3e031635	0.1280144
64	0xbde90ff2	-0.113799945
65	0x3d8f03a3	0.069831155
66	0xbb5ab268	-0.0033370499
67	0xbcae5468	-0.021280482
68	0xbe0f2099	-0.13977279
69	0xbdacff8a	-0.08447178
70	0x3d060da1	0.03272784
71	0x3d59c9a2	0.053170808
72	0xbd339f75	-0.043853242
73	0xbbe80b6d	-0.00708144
74	0xbcf2b897	-0.029629035
75	0xbbdcc952	-0.0067378664
76	0x3d931ce5	0.071832456
77	0x3dbb43d9	0.091438
78	0x3dcb3bc1	0.099235065
79	0x3d5a9820	0.053367734
80	0x3db095aa	0.08622296
81	0x3d70cf07	0.058791187
82	0x3d2719d9	0.040796135
83	0x3d883198	0.06650084
84	0x3d8cb950	0.06871283
85	0xbdab320f	-0.08359157
86	0x3dbe222e	0.09283863
87	0xbda7caa2	-0.08192946
88	0x3d046b09	0.03232864
89	0x3d72aa89	0.059244666
90	0x3cfb63e0	0.030687273
91	0xbb4f46a4	-0.0031627798
92	0x3dc7fcc9	0.09765012
93	0xbdb8172b	-0.08988794
94	0x3d10946b	0.035297792
95	0x3dbf6f34	0.09347382
96	0x3aee9ade	0.0018204113
97	0x3bcdf19c	0.0062849056
98	0x3c59ab74	0.0132855065
99	0x3c4502af	0.012024566
100	0x3d86f884	0.06590369
101	0x3c5f82ed	0.013642055
102	0x3ca25da3	0.01982004
103	0x3d91a481	0.07111455
104	0xbc953ac4	-0.018216498
105	0xbd75f927	-0.060052063
106	0x3dd0b62d	0.10190997
107	0x3ca746da	0.020419527
108	0xbde0fe77	-0.10986035
109	0xbda18bcb	-0.078879915
110	0xbdbced50	-0.09224951
111	0xbce4c0e9	-0.027924018
112	0x3c37cb9c	0.011217978
113	0x3df1c144	0.118044406
114	0x3c45d575	0.012074818
115	0xbe05483b	-0.13015835
116	0x3d97967c	0.074017495
117	0x3cddfe0b	0.027098676
118	0x3c9ca9e3	0.019123977
119	0x3df8c242	0.12146427
120	0xbbe29f81	-0.006915987
121	0x3d818a48	0.06325203
122	0xbd178337	-0.03699037
123	0x3d3a3ccd	0.04546814
124	0xbcc7aa3f	-0.024373172
125	0xbc74c25f	-0.01493892
126	0x3daad5a5	0.08341531
127	0xbda25516	-0.07926385
128	0xbd389344	-0.04506232
129	0xbd5c25a4	-0.053746834
130	0x3b334e65	0.002735996
131	0x3db407ba	0.08790536
132	0x3d96ca3d	0.07362793
133	0x3da3c813	0.079971455
134	0x3ccf95ee	0.025340047
135	0xbd831267	-0.06399994
136	0xbc8820d2	-0.016617212
137	0xbdc7298f	-0.097247235
138	0xbd856e98	-0.06515235
139	0x3dda92ec	0.106725544
140	0x3d8e1179	0.069369264
141	0x3d16c2fc	0.036807045
142	0xbd0f4be2	-0.034984477
143	0xbcdc3766	-0.026881885
144	0x3d798a44	0.060922876
145	0x3b2fb8cd	0.002681303
146	0x3d9e9c60	0.0774467
147	0x3d2640d4	0.04058917
148	0x3d762f0d	0.060103465
149	0xbdec24bc	-0.11530444
150	0x3bc275c5	0.0059344494
151	0x3dc661a3	0.096865915
152	0xbda5a73d	-0.08088539
153	0x3db24a47	0.087055735
154	0x3dbd2947	0.09236389
155	0xbd965b03	-0.07341578
156	0xbd737153	-0.059434246
157	0xbca3ae91	-0.0199807
158	0xbd98b62f	-0.07456624
159	0x3d4027d5	0.046912987
160	0x3dad6605	0.08466724
161	0x3d6ed11c	0.05830489
162	0x3d8c84f0	0.06861293
163	0x3d1835e1	0.037160758
164	0xbd26b4d0	-0.04069978
165	0xbde24a5a	-0.11049338
166	0x3c20866d	0.009797675
167	0xbd30fc5c	-0.04320942
168	0x3d50fb2f	0.051020797
169	0x3d303bde	0.043025844
170	0x3e0589a8	0.13040793
171	0x3c3c1684	0.0114799775
172	0x3ccf2112	0.025284324
173	0xbd0307ed	-0.03198998
174	0x3cf9932a	0.030465681
175	0x3ddccaa0	0.10780835
176	0xbdf2b207	-0.11850362
177	0xbcc4ca43	-0.024022227
178	0x3cb1716b	0.021660527
179	0x3dd04284	0.10168937
180	0x3d83f697	0.06443518
181	0x3c48fe69	0.012267687
182	0x3aa3e45f	0.0012503973
183	0x3daeaf55	0.08529536
184	0xbce44878	-0.027866587
185	0x3d2d0347	0.042239454
186	0xbdfd48ce	-0.12367402
187	0xbd80f6b1	-0.06297053
188	0x3c83c413	0.016084706
189	0x3d824dcd	0.063624956
190	0x3c186f61	0.009303899
191	0x3e14cfab	0.14532344
192	0xbce40d38	-0.027838334
193	0xbb84feb5	-0.0040586838
194	0x3d85cef7	0.06533616
195	0xbc93a7f9	-0.018024432
196	0xbdf29b37	-0.11846011
197	0x3d00243a	0.03128455
198	0xbb6e35e2	-0.0036348035
199	0xbda81316	-0.08206765
200	0x3cedd6c5	0.029033074
201	0xbd25c4cf	-0.040470894
202	0x3da066b1	0.07832087
203	0x3cd0c2d1	0.02548352
204	0x3d025d0b	0.031827014
205	0xbc8c550e	-0.017130401
206	0x3e002dbd	0.12517448
207	0x3d8d1ea7	0.06890612
208	0x3dae8f17	0.08523386
209	0x3d2d77e9	0.042350683
210	0x3ce55620	0.02799517
211	0x3da0d52d	0.0785316
212	0x3c1db4d6	0.009625634
213	0xbd4cca57	-0.049997654
214	0x3bd91d89	0.0066258353
215	0x3c23771f	0.009977131
216	0x3de042b3	0.10950222
217	0xbd72384c	-0.05913572
218	0xbd9d59fa	-0.07683177
219	0xbdd31953	-0.103075646
220	0x3d8f1f5d	0.06988404
221	0x3a47c029	0.00076198817
222	0xbd8d8b0c	-0.06911287
223	0x3de69a4f	0.11259901
224	0x3b7136d5	0.0036806364
225	0xbd4b33ed	-0.049610067
226	0xbd6e2cb6	-0.05814811
227	0x3d8440aa	0.06457646
228	0xbb1da8f0	-0.0024056993
229	0xbcbf68df	-0.023365436
230	0x3ce86889	0.028370159
231	0x3d88f314	0.066869885
232	0xbda64c65	-0.0812004
233	0xbdf13e6e	-0.11779486
234	0xbd0e75b4	-0.03478022
235	0xbd29b763	-0.041434657
236	0x3c625422	0.013814004
237	0xbd85b111	-0.06527913
238	0xbc4f24b7	-0.012643031
239	0x3bb71c51	0.0055880924
240	0xbd48a666	-0.048986815
241	0x3e19ea20	0.15030718
242	0xbd457127	-0.048203614
243	0xbe12aca7	-0.14323674
244	0x3d53a205	0.051668186
245	0xbd77b8b2	-0.060478874
246	0x3abd5eac	0.001444777
247	0x3ce133eb	0.027490577
248	0x3db4947d	0.088173844
249	0xbd854854	-0.06507936
250	0xbcec1799	-0.028819846
251	0xbbbbf014	-0.0057354067
252	0xbd153ca2	-0.036434777
253	0xbcde4f2a	-0.027137358
254	0x3c7ea4fe	0.015542267
255	0xbbbeb0fa	-0.005819437

lstm2.weight_hh_l0 f4 [512, 128]
0	0xbd08b5c0	-0.033376455
1	0x3d49674b	0.049170773
2	0xbd437c73	-0.047726106
3	0xbd1d0ade	-0.038340442
4	0xbc61a92c	-0.013773244
5	0xbd1e229f	-0.038607236
6	0x3d827a8e	0.06371032
7	0xbda86a28	-0.08223373
8	0x3cc61ee5	0.024184654
9	0x3dbfc434	0.09363595
10	0x3d17cc75	0.03706022
11	0xbb1bca1e	-0.0023771594
12	0xbd61fbe5	-0.055171866
13	0x3c8eeec8	0.017447844
14	0xbd3c2690	-0.045935214
15	0x3d469a32	0.048486896
16	0x3ddb749f	0.10715603
17	0x3d7971bd	0.060899485
18	0xbd2d80ba	-0.04235909
19	0xbda8c7a7	-0.08241206
20	0x3ce149d6	0.027501028
21	0xbd494299	-0.049135778
22	0xbc9d527a	-0.019204367
23	0x3d916d72	0.07100953
24	0xbe0565e0	-0.13027143
25	0x3c8fc570	0.0175502
26	0x3d7e1199	0.0620285
27	0x3d25b08e	0.04045158
28	0x3db9ded1	0.09075702
29	0xbda5a75c	-0.08088562
30	0xbd5e07ef	-0.054206785
31	0xbdbda398	-0.09259719
32	0xbbf56628	-0.0074889846
33	0xbd32ff18	-0.043700308
34	0x3d3fdd48	0.04684189
35	0xbdc88837	-0.09791606
36	0x3b88a9f5	0.004170651
37	0x3cac8201	0.021058084
38	0xbd3c4d51	-0.045972172
39	0xbd680f1d	-0.05665504
40	0xbd8d4196	-0.06897275
41	0x3d762d64	0.06010188
42	0xbd7733b2	-0.060352035
43	0x3d93cec4	0.07217172
44	0xbc378a72	-0.0112024415
45	0x3d2c0735	0.04199906
46	0x3caeb93d	0.021328563
47	0x3c09925a	0.008396709
48	0x3d086b0a	0.033305205
49	0xbdb1a140	-0.08673334
50	0x3da9f974	0.082995325
51	0x3d82fbe2	0.06395699
52	0xbd8d83a9	-0.06909878
53	0xbd36ab12	-0.04459674
54	0x3da37122	0.07980563
55	0xbca1e6a9	-0.019763308
56	0x3d8dcdfa	0.069240525
57	0x3cccab3c	0.024983995
58	0xbc5ecfcd	-0.013599348
59	0x3d2b9cb7	0.0418975
60	0xbd19eeaa	-0.037581123
61	0x3d3b14ee	0.045674257
62	0xbd441963	-0.047875773
63	0xbdb95733	-0.09049835
64	0x3d0b36b7	0.033987727
65	0x3c057bae	0.008147163
66	0xbc3fbe1d	-0.011703041
67	0x3d1a3efd	0.037657727
68	0xbd6642cc	-0.056216046
69	0xbbca962d	-0.006182453
70	0xbb2ee4ee	-0.0026686746
71	0x3d3a6061	0.04550207
72	0x3d9313c2	0.07181503
73	0xbdaea855	-0.085282005
74	0xbd02e35d	-0.03195511
75	0x3d79ba1d	0.060968507
76	0xbce82bd8	-0.028341219
77	0x3d9351e4	0.07193354
78	0xbd8f3323	-0.069921754
79	0x3d392737	0.045203414
80	0x3b40bd8e	0.0029409858
81	0xbdd5d9c8	-0.10441929
82	0x3de91ffa	0.11383052
83	0xba4b10ad	-0.00077463203
84	0xbd0ea887	-0.03482869
85	0x3d8930a0	0.066987276
86	0xbdb6c2c3	-0.089238666
87	0xbb52ee8b	-0.003218564
88	0x3be1ad67	0.0068871262
89	0xbb6e5347	-0.0036365555
90	0x3ce43cfe	0.027861115
91	0xbd17849f	-0.03699171
92	0x3d0159f6	0.031579934
93	0x3d98badb	0.07457515
94	0xbd03a2c0	-0.032137632
95	0xbd20ecb6	-0.039288245
96	0x3cf456bd	0.029826516
97	0xbdbf28bf	-0.093339436
98	0x3d3ee65f	0.046606418
99	0x3d76a369	0.060214434
100	0xbcb7fe32	-0.022460077
101	0xbd8d6904	-0.06904796
102	0xbd8954c0	-0.06705618
103	0x3c7a84f3	0.015290487
104	0x3d31a84b	0.043373387
105	0xbc7fe9b2	-0.015619682
106	0x3dd00654	0.10157457
107	0xbda3fcf9	-0.08007235
108	0x3da41fe8	0.08013898
109	0x3dc2071c	0.09474012
110	0xbdb9ce6a	-0.090725735
111	0xbc29c422	-0.010361703
112	0xbde862f0	-0.11346996
113	0xbcfdad51	-0.030966433
114	0xbd9c6fc2	-0.076385036
115	0x3c5f39c6	0.013624614
116	0xbd3117e7	-0.043235686
117	0xbd17acfa	-0.037030198
118	0xbd77e090	-0.060516894
119	0x3d8315b3	0.06400623
120	0xbc6d1017	-0.014469168
121	0x3d5e339e	0.054248445
122	0x3d961da4	0.07329872
123	0xbdb867aa	-0.09004147
124	0x3cd95ca5	0.026533434
125	0x3cfeed0d	0.031118894
126	0xbcb5b4e6	-0.022180986
127	0xbcd0d67d	-0.025492901
128	0x3dbe2512	0.09284414
129	0xbc933cbb	-0.017973294
130	0xbdbf2c92	-0.09334673
131	0xbd69f9ce	-0.057122998
132	0xbd9c7647	-0.07639747
133	0x3d94cfe7	0.07266217
134	0xbc90501b	-0.017616322
135	0xbd049f46	-0.032378457
136	0xbdac01ab	-0.08398756
137	0x3d711a5e	0.058863036
138	0xbd8c7ca9	-0.068597145
139	0xbd474d96	-0.048657976
140	0xbc965edb	-0.018355777
141	0x3d8fd2ec	0.07022652
142	0x3d72b775	0.05925699
143	0x3c48746b	0.012234787
144	0x3dfb0e2d	0.12258563
145	0x3b7e49c5	0.0038801294
146	0x3dabe9d6	0.0839421
147	0xbc134a78	-0.008989923
148	0xbd345ff3	-0.044036817
149	0xbdddff0e	-0.108396634
150	0xbd6ed7bf	-0.05831122
151	0x3cce75af	0.0252026
152	0x3cc76812	0.024341617
153	0x3d80c0d1	0.06286777
154	0xbd9dd211	-0.077060826
155	0x3d50d659	0.050985668
156	0xbd821ea4	-0.063535005
157	0xbbd99be9	-0.0066409004
158	0x3d11b536	0.035573207
159	0xbd8d944b	-0.0691305
160	0x3cd48ec5	0.025946984
161	0x3db6451c	0.088999
162	0x3d9b0a05	0.075702704
163	0xbd9e18bc	-0.077195615
164	0x3db5b7c6	0.088729426
165	0x3ce2ad6d	0.027670586
166	0xbdca6761	-0.09882999
167	0x3d318b64	0.043345824
168	0x3d0513e9	0.03248969
169	0xbd472a93	-0.048624586
170	0x3b8979e7	0.00419544
171	0xbd435a12	-0.04769332
172	0x3d215f46	0.0393975
173	0x3d585460	0.05281484
174	0xbc890d18	-0.016729876
175	0xbd6c9ead	-0.057768513
176	0x3ca06854	0.019580998
177	0x3b914411	0.004433163
178	0x3db24d89	0.08706195
179	0x3d21b5e6	0.039480112
180	0xbd2ab46e	-0.041675977
181	0x3d055c68	0.03255883
182	0xbb1f5c08	-0.002431633
183	0x3d9b368f	0.075787656
184	0x3d984258	0.07434529
185	0xbda48354	-0.08032861
186	0x3d8ba4c5	0.06818537
187	0x3cd01b5d	0.025403673
188	0xbde18d0a	-0.11013229
189	0xbc8f6978	-0.017506346
190	0xbd2803fc	-0.041019425
191	0xbb8ef056	-0.0043621464
192	0xbc818f67	-0.01581545
193	0x3d5cc1ac	0.053895637
194	0x3c5da665	0.013528441
195	0x3bb5a609	0.0055434746
196	0xbcb0ef81	-0.02159858
197	0xbd8a0dd5	-0.067409195
198	0xbd0a49c8	-0.03376177
199	0x3d55d1a3	0.05220188
200	0xbceecc10	-0.029150039
201	0x3ceb73bd	0.028741712
202	0xbd9e1a06	-0.07719807
203	0xbd8c9e2d	-0.06866107
204	0xbd59a0da	-0.053131916
205	0xbccce666	-0.025012206
206	0x3d6098ea	0.05483333
207	0xbdccc8c6	-0.09999232
208	0xbd1471c2	-0.0362413
209	0xbd311ca1	-0.043240193
210	0xbd36c95b	-0.04462562
211	0xbc82eaca	-0.015981097
212	0x3cc68a42	0.024235848
213	0x3c330932	0.010927485
214	0xbd8c9594	-0.06864467
215	0x3d10b3d3	0.035327744
216	0x3c020cc3	0.007937613
217	0x3d8f3418	0.06992358
218	0x3d5035fa	0.050832726
219	0x3ce9a048	0.02851881
220	0xbd22d67a	-0.039755322
221	0x3c6eb24e	0.014568878
222	0xbcdd5f73	-0.027023053
223	0xbd8d0871	-0.06886376
224	0xbe077a41	-0.1323023
225	0x3d680a7d	0.056650627
226	0xbcd82a51	-0.026387366
227	0xbdb3d160	-0.087801695
228	0xbc6c610f	-0.014427437
229	0xbcd449c6	-0.025914084
230	0x3d0ad2d8	0.033892483
231	0x3bb0721b	0.005384696
232	0x3d96f29a	0.07370491
233	0xbd818248	-0.06323677
234	0x3d3aa8be	0.04557108
235	0xbd6663c4	-0.056247488
236	0x3d4864a5	0.048924107
237	0x3ca173dd	0.019708568
238	0x3d7d25df	0.061803695
239	0xbd5bfd6a	-0.05370847
240	0xbd8443e8	-0.064582646
241	0x3d1b2e81	0.037886146
242	0xbd89b43d	-0.06723831
243	0xbd25a9e8	-0.04044524
244	0xbce482af	-0.027894346
245	0x3c5c6c23	0.013453516
246	0xbd63420e	-0.055482917
247	0x3da777f9	0.0817718
248	0xbcbd7b24	-0.023130007
249	0xbc8c0717	-0.017093224
250	0x3daf5248	0.08560616
251	0xbdbb7488	-0.09153086
252	0x3d3b838d	0.045779753
253	0xbc99c2f4	-0.018769719
254	0xbdc87a31	-0.09788931
255	0x3c7d1a56	0.0154481735

lstm2.bias_ih_l0 f4 [512]
0	0xbd9c1f01	-0.07623101
1	0x3d1fd6d3	0.03902323
2	0xbcc3d16e	-0.023903575
3	0xbd5e31b3	-0.054246616
4	0xbd7d86b2	-0.061896034
5	0x3d20ea99	0.03928623
6	0xbc406a8b	-0.011744152
7	0xb9860878	-0.0002556478
8	0x3d4d1fa4	0.050079003
9	0xbd6ee7e3	-0.058326613
10	0xbd0a0fe2	-0.033706553
11	0xbd69319c	-0.056932077
12	0xbcf500e3	-0.02990765
13	0x3da74349	0.081671305
14	0x3d4cd8d8	0.050011486
15	0xbd87c324	-0.06629017
16	0xbd4842e0	-0.048891902
17	0xbd704f83	-0.05866958
18	0xbd82c83c	-0.06385848
19	0xbdec54fb	-0.11539646
20	0x3b86512b	0.0040990314
21	0x3d7d937f	0.06190824
22	0x3d716226	0.058931492
23	0xbd23d202	-0.0399952
24	0xbdd4759a	-0.10373993
25	0xbd94e040	-0.07269335
26	0xbd3ea84e	-0.046547227
27	0x3ca393c8	0.019967929
28	0xbda29ce9	-0.079400845
29	0x3d8cc909	0.06874282
30	0x3d1c5542	0.038167246
31	0xbcfdebb9	-0.03099619
32	0xbd41f17f	-0.04734945
33	0xbd548e2b	-0.051893394
34	0x3dac344e	0.08408414
35	0xbd011acf	-0.031519707
36	0xbd7a921e	-0.061174504
37	0x3da044c9	0.0782562
38	0xbd049b54	-0.032374695
39	0x3c9fe5cb	0.019518754
40	0xbde37f8e	-0.111083135
41	0x3d366309	0.04452804
42	0xbd55d757	-0.052207317
43	0x3d34aaf9	0.044108365
44	0xbbc89125	-0.006120818
45	0x3d6d19f4	0.05788608
46	0x3d98d1a2	0.07461859
47	0xbd652ebe	-0.05595278
48	0xbd7b1894	-0.061302736
49	0x3d80101e	0.06253074
50	0x3de4de42	0.11175205
51	0xbd9a7f96	-0.07543866
52	0xbc5a202c	-0.013313334
53	0xbdb396eb	-0.0876902
54	0xbdc075ad	-0.09397445
55	0xbdbc6c8e	-0.09200393
56	0xbdd49702	-0.10380365
57	0x3d1d129c	0.038347825
58	0xbd808889	-0.06276042
59	0x3dc624d8	0.09674996
60	0xbd5f949a	-0.054585077
61	0x3d05647c	0.032566532
62	0xbcbd0f9d	-0.023078734
63	0xbdad10cf	-0.084504716
64	0xbc83348b	-0.016016265
65	0xbdb7db62	-0.08977391
66	0xbd586e40	-0.052839518
67	0x3d9e5b93	0.0773231
68	0x3b0a49f1	0.0021101201
69	0xbc4e11eb	-0.012577514
70	0xbdb026ef	-0.08601176
71	0xbd94dde4	-0.07268885
72	0x3c26be2a	0.010177175
73	0x3dab034b	0.083502375
74	0xbd8d4771	-0.06898392
75	0xbd62ad93	-0.055341315
76	0xbc916236	-0.017747026
77	0x3d0fddc1	0.03512359
78	0x3d73aac7	0.059489038
79	0xbd145104	-0.036210075
80	0xbd2ea35f	-0.04263627
81	0xbd4450ad	-0.0479285
82	0xbdc835e2	-0.09775902
83	0x3d916c95	0.071007885
84	0xbc29dcb9	-0.010367566
85	0x3cfb0e83	0.030646568
86	0xbd90e643	-0.07075169
87	0xbdd171a2	-0.10226752
88	0xbd777c89	-0.0604215
89	0xbd5b01b9	-0.05346844
90	0xbbf45ce8	-0.0074573644
91	0xbde489c8	-0.11159092
92	0x3be52d27	0.006993908
93	0xbdb9b932	-0.09068526
94	0x3bc9839c	0.0061497223
95	0x3db5b124	0.088716775
96	0xbd642b6f	-0.055705484
97	0xbcb1173c	-0.021617524
98	0xbdb6323b	-0.088962995
99	0x3c406293	0.011742252
100	0xbd5b3430	-0.053516567
101	0x3d7a8dd0	0.0611704
102	0xbd5f0939	-0.054452155
103	0x3cc4c450	0.02401939
104	0x3d874cfb	0.0660648
105	0xbde686ae	-0.11256157
106	0x3d01d89b	0.03170071
107	0xbb3777cf	-0.0027994995
108	0x3d53543f	0.051594015
109	0xbc39666e	-0.011315925
110	0x3d6ba602	0.057531364
111	0xbd620b87	-0.055186775
112	0x3c28037d	0.010254738
113	0xbda526c5	-0.08064035
114	0x3c8ad5ef	0.016947715
115	0x3c2f7a4b	0.010710309
116	0x3d9b3bce	0.07579766
117	0xbdc8c47e	-0.09803103
118	0xbd8aea0f	-0.067829244
119	0xbe05153c	-0.12996382
120	0xbdc7e944	-0.09761289
121	0x3d945f2f	0.07244717
122	0xbd13bd28	-0.036069065
123	0x3dc2dbf4	0.09514609
124	0xbe0708e3	-0.13186984
125	0xbd96034c	-0.073248476
126	0xbc621a84	-0.013800267
127	0xbdc6152b	-0.09672006
128	0x3d50cb49	0.050975118
129	0xbda21914	-0.079149395
130	0xbc0211e7	-0.007938839
131	0xbd24baaf	-0.040217098
132	0x3d83f363	0.06442907
133	0xbd262a7a	-0.040567853
134	0x3d22c108	0.03973487
135	0xbd8d9e36	-0.06914942
136	0x3da51306	0.08060269
137	0x3d9c1dd9	0.076228805
138	0xbdc45e79	-0.09588332
139	0xbd5988f5	-0.053109128
140	0x3d7052fd	0.058672894
141	0xbaaddccd	-0.0013264656
142	0x3cd974b6	0.02654491
143	0x3dc06deb	0.09395965
144	0x3d7b420f	0.061342295
145	0x3dc575b6	0.09641592
146	0x3d4c3bec	0.049861833
147	0xbd749a42	-0.059717424
148	0x3d510792	0.05103261
149	0xbd5258ac	-0.051354095
150	0x3bc576b7	0.006026115
151	0xbd8f8b5b	-0.07009002
152	0x3d98f6b2	0.074689284
153	0x3d8bca1a	0.06825657
154	0x3ceb9fb5	0.028762678
155	0xbce7ffd8	-0.028320238
156	0x3d23f87c	0.040031895
157	0x3d1fa9ec	0.03898041
158	0x3d8a6a14	0.06758514
159	0x3c8f4075	0.01748679
160	0x3dbe1c3b	0.09282728
161	0xbd773c43	-0.060360204
162	0x3da34e4f	0.079739206
163	0x3d8512ba	0.064977124
164	0x3c8ffaff	0.017575739
165	0xbdb045e1	-0.08607078
166	0xbdbeed55	-0.09322611
167	0xbd9f6b91	-0.077841885
168	0xbdabc18e	-0.08386527
169	0xbc26753b	-0.010159786
170	0x3bef08c3	0.0072947457
171	0xbd869e35	-0.06573144
172	0x3d8c3f10	0.06847966
173	0xbcdb6fdf	-0.026786743
174	0xbbf1151b	-0.0073572523
175	0xbda0af36	-0.07845919
176	0xbdb68b9f	-0.08913349
177	0x3d4bf1c2	0.049791105
178	0x3d404a69	0.046945963
179	0xbd8ea8e0	-0.06965804
180	0x3d205ec0	0.03915286
181	0x3c19c2e0	0.009384841
182	0x3ca6aff2	0.02034757
183	0x3cefdfaf	0.029281465
184	0xbd6a41c8	-0.05719164
185	0x3da15b76	0.07878773
186	0x3d694db9	0.056958888
187	0x3d691ac1	0.05691028
188	0xbd04dc00	-0.03243637
189	0xbcb69578	-0.02228807
190	0x3d747226	0.059679173
191	0xbcaff576	-0.02147935
192	0xbc4159d8	-0.011801206
193	0xbd5f782b	-0.05455796
194	0x3d8258ef	0.06364619
195	0x3dc392fd	0.0954952
196	0xbd2ba744	-0.041907564
197	0xbd418414	-0.0472451
198	0x3c82eef2	0.015983079
199	0x3d8cccfc	0.06875035
200	0x3c635a5a	0.013876522
201	0xbd894beb	-0.06703933
202	0x3d9dd8e9	0.07707388
203	0x3ca6a40a	0.020341892
204	0x3db5362d	0.08848224
205	0xbd89f01a	-0.06735249
206	0xba9b195b	-0.0011833118
207	0x3c2c6c84	0.010523919
208	0x3cec2533	0.028826332
209	0xbccc66c3	-0.024951344
210	0x3d83e858	0.064408004
211	0x3dcd7c4f	0.100334756
212	0x3d278af8	0.040904015
213	0xbd895aa1	-0.06706739
214	0xbdba3170	-0.09091461
215	0xbda1f42c	-0.079079
216	0xbdcef7d9	-0.10105867
217	0xbbcf7388	-0.006330911
218	0x3c69653e	0.014245329
219	0xbcf8e6fa	-0.030383576
220	0x3cee83b2	0.029115532
221	0xbd01ceca	-0.03169135
222	0xbd69535b	-0.05696426
223	0xbcee312f	-0.029076187
224	0x3da16243	0.0788007
225	0xbd686763	-0.056739222
226	0xbd62f5c7	-0.055410173
227	0xbc398b75	-0.011324753
228	0x3c225144	0.009907071
229	0x3d012606	0.031530403
230	0x3d1b4c6a	0.03791467
231	0xbcd0825f	-0.02545279
232	0xbd85c381	-0.0653143
233	0x3d60ca03	0.054880153
234	0xbd3348d4	-0.043770626
235	0xbd9b3687	-0.0757876
236	0x3d733aab	0.059382122
237	0xbddd54f5	-0.1080722
238	0x3d5526f6	0.05203911
239	0xbddc30dc	-0.10751507
240	0x3cd79cd4	0.026319899
241	0x3da9a20e	0.082828626
242	0x3d31372e	0.043265514
243	0x3d2b56f0	0.041830957
244	0x3d11d0b2	0.035599418
245	0xbbeb2f2d	-0.0071772547
246	0xbdaf0a36	-0.085468695
247	0x3d7ab610	0.061208785
248	0x3cca9f9c	0.02473431
249	0x3cfcf86a	0.030880172
250	0x3daedaf4	0.08537856
251	0x3daa54dc	0.08316967
252	0x3d00ef19	0.03147802
253	0xbd360a43	-0.04444338
254	0xbd791c19	-0.06081781
255	0x3d932909	0.07185561
